_________________________________________________________________
Layer (type)                 Output Shape              Param #   
=================================================================
conv2d_97 (Conv2D)           (None, 26, 26, 16)        160       
_________________________________________________________________
batch_normalization_85 (Batc (None, 26, 26, 16)        64        
_________________________________________________________________
dropout_85 (Dropout)         (None, 26, 26, 16)        0         
_________________________________________________________________
conv2d_98 (Conv2D)           (None, 24, 24, 12)        1740      
_________________________________________________________________
batch_normalization_86 (Batc (None, 24, 24, 12)        48        
_________________________________________________________________
dropout_86 (Dropout)         (None, 24, 24, 12)        0         
_________________________________________________________________
conv2d_99 (Conv2D)           (None, 24, 24, 12)        156       
_________________________________________________________________
max_pooling2d_13 (MaxPooling (None, 12, 12, 12)        0         
_________________________________________________________________
conv2d_100 (Conv2D)          (None, 10, 10, 12)        1308      
_________________________________________________________________
batch_normalization_87 (Batc (None, 10, 10, 12)        48        
_________________________________________________________________
dropout_87 (Dropout)         (None, 10, 10, 12)        0         
_________________________________________________________________
conv2d_101 (Conv2D)          (None, 8, 8, 16)          1744      
_________________________________________________________________
batch_normalization_88 (Batc (None, 8, 8, 16)          64        
_________________________________________________________________
dropout_88 (Dropout)         (None, 8, 8, 16)          0         
_________________________________________________________________
conv2d_102 (Conv2D)          (None, 6, 6, 16)          2320      
_________________________________________________________________
batch_normalization_89 (Batc (None, 6, 6, 16)          64        
_________________________________________________________________
dropout_89 (Dropout)         (None, 6, 6, 16)          0         
_________________________________________________________________
conv2d_103 (Conv2D)          (None, 4, 4, 16)          2320      
_________________________________________________________________
batch_normalization_90 (Batc (None, 4, 4, 16)          64        
_________________________________________________________________
dropout_90 (Dropout)         (None, 4, 4, 16)          0         
_________________________________________________________________
conv2d_104 (Conv2D)          (None, 1, 1, 10)          2570      
_________________________________________________________________
batch_normalization_91 (Batc (None, 1, 1, 10)          40        
_________________________________________________________________
dropout_91 (Dropout)         (None, 1, 1, 10)          0         
_________________________________________________________________
flatten_13 (Flatten)         (None, 10)                0         
_________________________________________________________________
activation_13 (Activation)   (None, 10)                0         
=================================================================
Total params: 12,710
Trainable params: 12,514
Non-trainable params: 196
_________________________________________________________________
/usr/local/lib/python3.6/dist-packages/ipykernel_launcher.py:36: UserWarning: Update your `Conv2D` call to the Keras 2 API: `Conv2D(10, (4, 4))`

================================================================================================================================
…
